backend/recommendation/train_dir/SASRec.epoch=75.learning_rate=0.001.layer=2.head=1.embedding_dims=64.sequence_size=25.pth (torch, 236971 bytes, 28 tensors)

product_emb.weight f4 [51, 64]
0	0x00000000	0.0
1	0x00000000	0.0
2	0x00000000	0.0
3	0x00000000	0.0
4	0x00000000	0.0
5	0x00000000	0.0
6	0x00000000	0.0
7	0x00000000	0.0
8	0x00000000	0.0
9	0x00000000	0.0
10	0x00000000	0.0
11	0x00000000	0.0
12	0x00000000	0.0
13	0x00000000	0.0
14	0x00000000	0.0
15	0x00000000	0.0
16	0x00000000	0.0
17	0x00000000	0.0
18	0x00000000	0.0
19	0x00000000	0.0
20	0x00000000	0.0
21	0x00000000	0.0
22	0x00000000	0.0
23	0x00000000	0.0
24	0x00000000	0.0
25	0x00000000	0.0
26	0x00000000	0.0
27	0x00000000	0.0
28	0x00000000	0.0
29	0x00000000	0.0
30	0x00000000	0.0
31	0x00000000	0.0
32	0x00000000	0.0
33	0x00000000	0.0
34	0x00000000	0.0
35	0x00000000	0.0
36	0x00000000	0.0
37	0x00000000	0.0
38	0x00000000	0.0
39	0x00000000	0.0
40	0x00000000	0.0
41	0x00000000	0.0
42	0x00000000	0.0
43	0x00000000	0.0
44	0x00000000	0.0
45	0x00000000	0.0
46	0x00000000	0.0
47	0x00000000	0.0
48	0x00000000	0.0
49	0x00000000	0.0
50	0x00000000	0.0
51	0x00000000	0.0
52	0x00000000	0.0
53	0x00000000	0.0
54	0x00000000	0.0
55	0x00000000	0.0
56	0x00000000	0.0
57	0x00000000	0.0
58	0x00000000	0.0
59	0x00000000	0.0
60	0x00000000	0.0
61	0x00000000	0.0
62	0x00000000	0.0
63	0x00000000	0.0
64	0x3d1831e7	0.037156966
65	0xbdb1c80e	-0.086807355
66	0xbe54a3d1	-0.20765616
67	0xbcf000c8	-0.029297248
68	0x3db9f02d	0.09079013
69	0xbd7e8b28	-0.06214443
70	0x3d91eae9	0.07124884
71	0xbd821a31	-0.06352652
72	0xbe2befae	-0.1679065
73	0x3e826cad	0.25473538
74	0x3e40fd0d	0.18846531
75	0xbca84e53	-0.02054516
76	0x3d1ba3b2	0.03799791
77	0xbdc802c6	-0.09766154
78	0xbde6b5d6	-0.11265151
79	0xbd806dcf	-0.06270944
80	0xbe4dad04	-0.20085531
81	0xbdebd0e7	-0.11514454
82	0xbe11e0dd	-0.14245935
83	0xbe8c6d4a	-0.2742713
84	0x3dbb87e5	0.09156779
85	0x3d9532f9	0.07285113
86	0xbdb26ad1	-0.0871178
87	0x3d43d7b7	0.047813144
88	0x3e1c454c	0.1526081
89	0xbe32adfe	-0.17449185
90	0xbcec9a97	-0.028882308
91	0xbcb52ace	-0.022115137
92	0x3d9dbe11	0.07702268
93	0xbd9b8ce9	-0.07595236
94	0xbe0e9f4a	-0.13927951
95	0xbcdc79cd	-0.026913548
96	0x3dab8ca3	0.08376434
97	0xbd63ac83	-0.055584442
98	0xbc6eeaf9	-0.014582389
99	0xbd351b25	-0.04421534
100	0x3d2f4fc5	0.042800684
101	0xbd97d30f	-0.07413303
102	0xbd24e1eb	-0.040254515
103	0xbc47cf37	-0.0121954
104	0x3cbd81de	0.023133215
105	0xbd343438	-0.043995112
106	0xbd587bbb	-0.052852374
107	0xbe061cfc	-0.13096994
108	0x3e0a0141	0.13477041
109	0x3db5725f	0.08859705
110	0x3e55827d	0.20850559
111	0xbd8033d8	-0.062598884
112	0x3e1d465c	0.15358871
113	0x3de9921b	0.114048205
114	0xbe7c1fe4	-0.2462154
115	0x3dab8b5e	0.083761916
116	0xbd4a5fef	-0.049407896
117	0xbdc2d75d	-0.095137335
118	0xbe8da010	-0.2766118
119	0xbd40f67e	-0.047110073
120	0x3dddd818	0.10832232
121	0x3d16706c	0.036728308
122	0x3d76d78a	0.060264148
123	0x3c79ab8e	0.015238656
124	0xbcb44b51	-0.02200857
125	0xbd768f21	-0.060195092
126	0xbd6c2fb6	-0.05766269
127	0x3d35df7b	0.04440258
128	0xbd8d987f	-0.06913852
129	0x3e50ecb2	0.20402792
130	0xbe67180a	-0.22567764
131	0xbd03d7c7	-0.032188203
132	0x3d4b9272	0.049700208
133	0xbdd4923f	-0.10379457
134	0x3d604f51	0.054763142
135	0x3e12130c	0.14265078
136	0xbd8d42d1	-0.0689751
137	0xbb16c50e	-0.0023005637
138	0x3cd19526	0.025583815
139	0xbcccd534	-0.025004007
140	0xbd29791d	-0.04137527
141	0xbe8da9d4	-0.2766863
142	0xbd7adde1	-0.061246756
143	0x3de8dab2	0.11369838
144	0xbd2df0f2	-0.04246611
145	0xbe40e235	-0.18836291
146	0x3dc8342f	0.09775578
147	0xbe5ed577	-0.21761118
148	0x3d45d33d	0.048297156
149	0x3d8d7e5c	0.06908867
150	0xbdcd601f	-0.10028099
151	0x3e196d76	0.14983162
152	0x3e0110be	0.12604043
153	0x3ba2821f	0.0049593593
154	0x3e4293f3	0.1900175
155	0xbc0a2714	-0.0084321685
156	0x3dd3346b	0.10312732
157	0xb84150b8	-4.608996e-05
158	0xbe966d87	-0.29380438
159	0x3cef6344	0.029222138
160	0xbcf68b4e	-0.030095723
161	0xbde62abd	-0.112386204
162	0xbda22e84	-0.079190284
163	0x3e747a8f	0.23874877
164	0xbda157be	-0.078780636
165	0x3dbc7249	0.09201486
166	0xbb41434d	-0.0029489577
167	0xbe13ec8e	-0.14445707
168	0xbd65495a	-0.055978157
169	0xbd5bdf93	-0.053680014
170	0xbd068a10	-0.03284651
171	0xbd95eadb	-0.07320186
172	0xbb924aaf	-0.0044644694
173	0x3e34eba0	0.17668009
174	0x3e7f227e	0.24915501
175	0xbdc165c4	-0.094432384
176	0x3d9c5ffd	0.07635496
177	0x3d741306	0.059588455
178	0xbe22813e	-0.15869614
179	0x3d757e05	0.059934635
180	0x3e1bd703	0.15218739
181	0xbc7a936b	-0.015293936
182	0xbc74133e	-0.014897166
183	0xbd0b7224	-0.0340444
184	0x3d11a5f8	0.03555867
185	0x3e040ded	0.12895937
186	0xbd3b432e	-0.045718364
187	0xbe1afcac	-0.15135449
188	0x3dcb3542	0.099222675
189	0x3d1cdbd9	0.0382956
190	0x3ae1fcda	0.0017241493
191	0x3cdfa64b	0.027300974
192	0x3cfc288b	0.030781051
193	0xbd3ff1ac	-0.046861336
194	0xbd9e5302	-0.07730676
195	0x3d89d149	0.06729371
196	0xbde21543	-0.110392116
197	0xbe1d9348	-0.15388215
198	0x3e795fe3	0.24352984
199	0xbd464b43	-0.04841162
200	0xbd8106ee	-0.0630015
201	0xbca02ec5	-0.019553551
202	0xbc36d174	-0.011158336
203	0xbe1d581a	-0.1536564
204	0x3d905171	0.07046784
205	0xbe631042	-0.2217417
206	0x3d9d6237	0.076847486
207	0xbdad0fff	-0.08450317
208	0xbd9445e5	-0.07239894
209	0xbdc76924	-0.09736851
210	0x3e3c85fc	0.18410486
211	0xbcc1b237	-0.02364455
212	0x3e54c481	0.20778085
213	0x3e60d0e9	0.21954693
214	0xbe29e776	-0.16592202
215	0x3da3b3df	0.07993292
216	0xbde74575	-0.11292545
217	0xbe8b7ede	-0.2724523
218	0x3d36ae51	0.044599835
219	0x3d64be18	0.05584535
220	0x3dc36a15	0.09541718
221	0xbda826d1	-0.08210529
222	0xbe31f687	-0.17379199
223	0xbd86798e	-0.065661535
224	0x3d02249e	0.031773202
225	0xbdc294ec	-0.09501061
226	0x3dd4a98a	0.103838995
227	0x3c3d4d14	0.011554021
228	0x3d84998e	0.06474601
229	0x3ea1a984	0.31574643
230	0xbcbfbf0b	-0.023406526
231	0x3dda6135	0.10663072
232	0xbe5d8af7	-0.21635042
233	0xbdccbe17	-0.09997194
234	0xbc97fa6a	-0.018552024
235	0xbd38f0d3	-0.045151543
236	0xbd9224d2	-0.07135929
237	0x3dcdb562	0.10044362
238	0x3e83cefe	0.2574386
239	0xbe43ed23	-0.19133429
240	0xbc43e0df	-0.011955469
241	0x3d91e9b3	0.07124653
242	0xbdda93fd	-0.10672758
243	0x3dfb49f7	0.12269967
244	0xbd1336b5	-0.035940845
245	0x3ca57eb8	0.020202026
246	0xbe164809	-0.14675917
247	0xbc924b5c	-0.0178582
248	0x3e246c1f	0.1605687
249	0x3d1d9a67	0.038477328
250	0x3d346549	0.044041906
251	0xbe8cd238	-0.27504134
252	0xbd2588ad	-0.040413547
253	0x3cfd3e03	0.030913359
254	0xbc2777a9	-0.0102214
255	0x3dd10dc2	0.10207702

position_emb.weight f4 [26, 64]
0	0x00000000	0.0
1	0x00000000	0.0
2	0x00000000	0.0
3	0x00000000	0.0
4	0x00000000	0.0
5	0x00000000	0.0
6	0x00000000	0.0
7	0x00000000	0.0
8	0x00000000	0.0
9	0x00000000	0.0
10	0x00000000	0.0
11	0x00000000	0.0
12	0x00000000	0.0
13	0x00000000	0.0
14	0x00000000	0.0
15	0x00000000	0.0
16	0x00000000	0.0
17	0x00000000	0.0
18	0x00000000	0.0
19	0x00000000	0.0
20	0x00000000	0.0
21	0x00000000	0.0
22	0x00000000	0.0
23	0x00000000	0.0
24	0x00000000	0.0
25	0x00000000	0.0
26	0x00000000	0.0
27	0x00000000	0.0
28	0x00000000	0.0
29	0x00000000	0.0
30	0x00000000	0.0
31	0x00000000	0.0
32	0x00000000	0.0
33	0x00000000	0.0
34	0x00000000	0.0
35	0x00000000	0.0
36	0x00000000	0.0
37	0x00000000	0.0
38	0x00000000	0.0
39	0x00000000	0.0
40	0x00000000	0.0
41	0x00000000	0.0
42	0x00000000	0.0
43	0x00000000	0.0
44	0x00000000	0.0
45	0x00000000	0.0
46	0x00000000	0.0
47	0x00000000	0.0
48	0x00000000	0.0
49	0x00000000	0.0
50	0x00000000	0.0
51	0x00000000	0.0
52	0x00000000	0.0
53	0x00000000	0.0
54	0x00000000	0.0
55	0x00000000	0.0
56	0x00000000	0.0
57	0x00000000	0.0
58	0x00000000	0.0
59	0x00000000	0.0
60	0x00000000	0.0
61	0x00000000	0.0
62	0x00000000	0.0
63	0x00000000	0.0
64	0xbbe7d573	-0.0070750057
65	0x3e14b86f	0.14523481
66	0xbe1057ae	-0.14095947
67	0x3cb82df4	0.02248285
68	0x3c8cdcd0	0.017195135
69	0x3c218231	0.0098577
70	0xbe17a9d9	-0.14810885
71	0x3d8e271f	0.069410555
72	0x3e1aa37d	0.15101428
73	0xbd65141e	-0.05592739
74	0xbe890237	-0.26759502
75	0x3d10aa8e	0.035318904
76	0xbd83e5bc	-0.06440303
77	0x3e37b1c2	0.17938903
78	0xbaac7e2d	-0.0013160162
79	0x3e1552a4	0.14582306
80	0x3dde28d8	0.10847634
81	0x3e175851	0.14779784
82	0xbc9ec657	-0.019381685
83	0xbaa9177e	-0.0012900678
84	0x3cf89353	0.030343687
85	0x3e29bde3	0.16576342
86	0xbe0052cf	-0.12531589
87	0x3d891b7d	0.06694696
88	0x3e47f948	0.19528687
89	0x3e63907c	0.22223085
90	0x3b84cef7	0.0040529924
91	0x3d172d4b	0.03690843
92	0xbc8fe8e6	-0.01756711
93	0xbe3a9554	-0.18221027
94	0x3ccfe23f	0.025376437
95	0x3d8b0046	0.067871615
96	0xbe30080a	-0.17190567
97	0xbe44717e	-0.19183919
98	0x3c709359	0.014683568
99	0xbe7275f6	-0.23677811
100	0xbe30db73	-0.17271213
101	0x3c006f69	0.007839062
102	0xbdde248a	-0.10846813
103	0xbc879ba8	-0.016553715
104	0x3e63a24f	0.22229885
105	0xbdc79a48	-0.09746224
106	0x3dcb4ecc	0.09927139
107	0x3e1f3afe	0.15549847
108	0xbc89da60	-0.016827762
109	0xbc96ba71	-0.018399449
110	0x3d92edb8	0.071742475
111	0x3e5e6ce0	0.2172122
112	0xbd3491a7	-0.044084217
113	0xbdda0c65	-0.10646895
114	0xbe19654e	-0.14980051
115	0x3ea60636	0.32426614
116	0x3d8e8e68	0.069607556
117	0x3e013458	0.12617624
118	0x3e3e8c32	0.18608168
119	0x3ebd801f	0.3701181
120	0x3e3d0805	0.1846009
121	0xbd015a61	-0.031580333
122	0xbcce8b1c	-0.025212817
123	0xbdb58169	-0.08862574
124	0x3cfa5d32	0.030562017
125	0xbc6e0308	-0.01452709
126	0x3cd3070a	0.025760192
127	0xbeb7f673	-0.35930213
128	0x3ca18f60	0.019721687
129	0x3e472439	0.19447412
130	0x3e24ee07	0.16106425
131	0xbdf76e70	-0.12081611
132	0x3d22536b	0.039630335
133	0xbd3e6887	-0.046486404
134	0x3f06340c	0.5242317
135	0x3d62722c	0.055284664
136	0x3e7b8719	0.24563254
137	0x3e456f5b	0.1928076
138	0x3e1a1bf8	0.15049732
139	0x3e2b7d79	0.16747083
140	0x3d1a8671	0.03772587
141	0xbe3b8179	-0.18311109
142	0x3ca67f1b	0.02032428
143	0xbce32545	-0.027727732
144	0xbdba7799	-0.09104843
145	0x3cd7f07b	0.026359787
146	0xbe93f67b	-0.28898987
147	0xbe7a7eea	-0.24462476
148	0x3ba1d5b3	0.004938805
149	0x3ca7f69f	0.02050334
150	0x3e68b0b3	0.22723655
151	0xbc11fa84	-0.008909825
152	0x3e85e57e	0.2615165
153	0x3dccc7e3	0.09999063
154	0xbeb37cac	-0.35056055
155	0x3c77efc6	0.01513285
156	0x3d74499d	0.059640516
157	0x3e5f7d5d	0.21825166
158	0xbd49906a	-0.04920999
159	0x3e475e18	0.19469488
160	0xbdf0eca0	-0.11763883
161	0xbd56bd51	-0.05242664
162	0xbdc14a61	-0.09438015
163	0xbe4ab1f9	-0.19794454
164	0xbe1bccd3	-0.15214853
165	0x3d8d8d3f	0.06911706
166	0xbdb80499	-0.08985252
167	0x3d669faf	0.05630463
168	0x3e6888ad	0.22708388
169	0x3d61968c	0.055075213
170	0xbd255577	-0.04036471
171	0x3cd9b760	0.026576698
172	0xbdd454d9	-0.10367746
173	0x3e452235	0.1925133
174	0x3ddd8066	0.10815506
175	0xbde719ac	-0.112841934
176	0xbd866b63	-0.06563451
177	0xbe9c3a36	-0.3051316
178	0x3e22c2c6	0.15894613
179	0xbd35a260	-0.044344306
180	0xbb9838ff	-0.0046454663
181	0x3d5a8497	0.053349104
182	0xbd21a4c1	-0.039463762
183	0xbda7c5c8	-0.08192021
184	0x3e457a34	0.19284898
185	0x3ddd9ad0	0.10820544
186	0x3dc55468	0.0963524
187	0x3da4023e	0.0800824
188	0x3dc38f2e	0.09548794
189	0x3ce8eb85	0.028432617
190	0x3d9dd03d	0.07705734
191	0x3e9ea53e	0.30985445
192	0x3d05b335	0.03264161
193	0x3e18191a	0.14853325
194	0xbdb59136	-0.088655874
195	0x3e186234	0.14881212
196	0xbd436abe	-0.04770922
197	0x3be025cc	0.0068404432
198	0x3e23f078	0.160097
199	0xbd865bae	-0.06560455
200	0x3ce71212	0.028206859
201	0xbe8abd42	-0.27097517
202	0x3d5d0282	0.05395747
203	0xbc384410	-0.011246696
204	0xbd7c3e53	-0.061582875
205	0xbc2b07b7	-0.010438851
206	0xba6d09f0	-0.00090423133
207	0x3e9cf4d9	0.30655554
208	0x3ecb21fd	0.39674369
209	0xbe2c88f4	-0.16849118
210	0x3e0f189f	0.13974236
211	0x3d9c5d9f	0.07635044
212	0x3dca9135	0.09890977
213	0xbd90b917	-0.07066553
214	0x3abf7617	0.0014607337
215	0xbe0d6042	-0.1380625
216	0xbd996fc8	-0.07492024
217	0x3e1a3e96	0.15062937
218	0xbe490979	-0.1963252
219	0xbdda87ce	-0.10670434
220	0x3da3c736	0.07996981
221	0xbe4fea7e	-0.20304295
222	0xbe140488	-0.14454854
223	0x3e1d681f	0.1537175
224	0x3c86ee8a	0.016471166
225	0x3dfe5724	0.124189645
226	0xbcd6bd48	-0.026213303
227	0xbd303d31	-0.043027107
228	0xbc86d068	-0.016456798
229	0xbe68c2ae	-0.22730514
230	0xbcefb7c6	-0.029262435
231	0xbe4ba5ff	-0.19887541
232	0xbe53b43e	-0.20674226
233	0x3dc41dd6	0.09576003
234	0x3ea4092b	0.32038245
235	0x3df6262b	0.12018999
236	0xbe843692	-0.25822884
237	0xbc65376a	-0.0139902625
238	0x3e51c03b	0.20483486
239	0x3d83de17	0.06438845
240	0xbe8af9f8	-0.27143836
241	0x3d85516f	0.06509673
242	0xbdcc9bee	-0.09990679
243	0x3beaed46	0.0071693985
244	0xbaf09597	-0.0018355128
245	0x3df5f705	0.12010006
246	0xbd2f63cc	-0.042819783
247	0xbd117c14	-0.03551872
248	0xbc235bdb	-0.0099706305
249	0xbe314a6f	-0.1731355
250	0xbe901571	-0.28141358
251	0x3ddc2f1f	0.10751175
252	0x3d456718	0.04819402
253	0x3cea2fe2	0.028587285
254	0xbd83413c	-0.06408927
255	0x3e7d5a41	0.2474146

attention_layernorms.0.weight f4 [64]
0	0x3f740f9e	0.9533633
1	0x3f86dfdc	1.0537066
2	0x3f7fa6aa	0.99863684
3	0x3f845b4f	1.0340365
4	0x3f8185f9	1.011901
5	0x3f818248	1.0117884
6	0x3f6e165e	0.9300288
7	0x3f6f34bb	0.93439835
8	0x3f780255	0.9687856
9	0x3f967d58	1.1757002
10	0x3f722f00	0.94602966
11	0x3f73540d	0.95050126
12	0x3f7e6a44	0.993809
13	0x3f6fc905	0.93666106
14	0x3f7ff282	0.9997941
15	0x3f87bd3b	1.0604624
16	0x3f7a964d	0.9788559
17	0x3f78192d	0.96913415
18	0x3f7e0da3	0.9923956
19	0x3f80e995	1.0071284
20	0x3f76c925	0.9640067
21	0x3f744db0	0.9543104
22	0x3f8a1514	1.0787683
23	0x3f76f0da	0.9646126
24	0x3f809b81	1.0047456
25	0x3f7f0767	0.9962067
26	0x3f843448	1.0328455
27	0x3f85c238	1.0449896
28	0x3f823fa2	1.0175669
29	0x3f87fc53	1.0623878
30	0x3f819063	1.0122188
31	0x3f75da59	0.960363
32	0x3f834634	1.0255799
33	0x3f73a427	0.9517235
34	0x3f8479ac	1.0349631
35	0x3f849559	1.0358077
36	0x3f6a050c	0.9141395
37	0x3f696eb8	0.9118457
38	0x3f75563f	0.95834726
39	0x3f89baa2	1.0760081
40	0x3f8ab774	1.0837235
41	0x3f7ebddd	0.9950846
42	0x3f7bb382	0.9832078
43	0x3f7d7997	0.99013656
44	0x3f741c6d	0.95355874
45	0x3f88be26	1.0683029
46	0x3f8159ba	1.0105507
47	0x3f7df73e	0.99205387
48	0x3f812b5a	1.0091355
49	0x3f86474c	1.0490508
50	0x3f7712e9	0.9651323
51	0x3f84f3e4	1.038693
52	0x3f721be1	0.9457379
53	0x3f77a496	0.96735513
54	0x3f71bad3	0.94425696
55	0x3f834513	1.0255455
56	0x3f848dae	1.0355737
57	0x3f84fa1c	1.0388827
58	0x3f88e98d	1.0696274
59	0x3f77e0d3	0.9682743
60	0x3f7432bd	0.9538992
61	0x3f80b276	1.0054462
62	0x3f77c96b	0.96791714
63	0x3f866b01	1.0501405

attention_layernorms.0.bias f4 [64]
0	0x3cab225f	0.020890413
1	0xbc939756	-0.018016499
2	0xbc10afe6	-0.008831
3	0xbb73aa15	-0.0037180234
4	0x3cd0bd75	0.025480965
5	0x3c3e5f2a	0.011619369
6	0xbbe7e9aa	-0.0070774155
7	0x3c92f08c	0.017936967
8	0x3c5fa734	0.013650704
9	0xbc1c0626	-0.00952295
10	0xbcd923c8	-0.02650632
11	0x3cba3b99	0.022733497
12	0xbc70beb4	-0.014693905
13	0x3c6bb020	0.014385253
14	0x3b84f3e7	0.0040573957
15	0x3b4c0fbc	0.0031137308
16	0xbb0c57d5	-0.0021414657
17	0xbc1bbf13	-0.009506005
18	0x3ba94f5d	0.0051669315
19	0xbc28b377	-0.010296694
20	0xbc368f8b	-0.011142622
21	0xbcb14702	-0.021640304
22	0x3b7026e2	0.003664427
23	0x3c191235	0.00934272
24	0xbc3c3c41	-0.011488975
25	0xbbdc8842	-0.0067301104
26	0xbb39e5cf	-0.0028365736
27	0x3c27393f	0.01020652
28	0x3ba76112	0.005108007
29	0x3bca2167	0.0061685327
30	0xbbe82d88	-0.007085506
31	0x3c4490e2	0.011997433
32	0x3b5b7891	0.0033488611
33	0xbc870d25	-0.01648576
34	0xbc7f7c4c	-0.0155935995
35	0x3c21d49e	0.009877352
36	0xbbc822d2	-0.0061076665
37	0xbc280d9c	-0.010257151
38	0x3bc4a6d2	0.006001332
39	0x3ba38d8a	0.004991238
40	0xbcbabd78	-0.022795424
41	0x3c87a7af	0.01655945
42	0xbc683d72	-0.014174806
43	0xbbd95cdf	-0.0066333856
44	0x3bd7c7d4	0.0065851007
45	0x3caf1375	0.021371583
46	0xbd48b01a	-0.04899607
47	0xbbb96d7b	-0.005658803
48	0x3abb4f81	0.0014290662
49	0xbba6e876	-0.0050936295
50	0x3c071401	0.008244515
51	0xbbc8658d	-0.0061156214
52	0x3b8f80f1	0.0043793847
53	0x3cfe784d	0.031063223
54	0xbb7819c3	-0.0037857152
55	0xbbb7ddab	-0.0056111417
56	0xbb847e2f	-0.0040433626
57	0x3c2d2bbd	0.01056951
58	0xbc34feb2	-0.011047052
59	0xbbe42089	-0.0069618863
60	0xbc4abded	-0.012374383
61	0xbc9cd89e	-0.01914626
62	0x3b55e3b7	0.003263695
63	0xbc052995	-0.00812759

attention_layernorms.1.weight f4 [64]
0	0x3f7716e9	0.96519333
1	0x3f8266af	1.0187587
2	0x3f72dc16	0.94867074
3	0x3f727e09	0.94723564
4	0x3f76447f	0.96198267
5	0x3f7784df	0.9668712
6	0x3f7f01cb	0.9961211
7	0x3f75bf86	0.95995367
8	0x3f79d878	0.9759593
9	0x3f7716f7	0.96519417
10	0x3f7c1632	0.9847137
11	0x3f7c6018	0.9858413
12	0x3f7632c4	0.9617121
13	0x3f7628c0	0.9615593
14	0x3f80dda4	1.0067639
15	0x3f81471d	1.0099827
16	0x3f7a0a6c	0.9767215
17	0x3f73a28b	0.95169896
18	0x3f766a71	0.96256167
19	0x3f77816e	0.9668187
20	0x3f825777	1.0182942
21	0x3f83468d	1.0255905
22	0x3f82289b	1.0168642
23	0x3f7bccf3	0.983596
24	0x3f87b51f	1.0602149
25	0x3f7c36bb	0.9852101
26	0x3f7751c1	0.9660912
27	0x3f83720c	1.0269179
28	0x3f7b435e	0.9814967
29	0x3f850199	1.0391113
30	0x3f895b48	1.0730982
31	0x3f748ceb	0.95527524
32	0x3f7ab350	0.9792986
33	0x3f7e503c	0.9934118
34	0x3f806ed5	1.0033823
35	0x3f727b97	0.94719833
36	0x3f7c9d8a	0.98677886
37	0x3f802768	1.0012026
38	0x3f75a6f2	0.95957863
39	0x3f80f4b3	1.0074676
40	0x3f7c8bfb	0.98651093
41	0x3f7d2247	0.9888043
42	0x3f7e6744	0.9937632
43	0x3f7ee410	0.99566746
44	0x3f762ffe	0.9616698
45	0x3f81d7f2	1.0144026
46	0x3f80c5b5	1.0060335
47	0x3f81b2d4	1.0132699
48	0x3f74ea7f	0.9567031
49	0x3f834a17	1.0256985
50	0x3f828f21	1.019993
51	0x3f87f66b	1.0622076
52	0x3f812890	1.0090504
53	0x3f7f3dd1	0.997037
54	0x3f827476	1.0191791
55	0x3f720e7a	0.9455334
56	0x3f795873	0.9740059
57	0x3f7be963	0.98402995
58	0x3f84fd64	1.0389829
59	0x3f75d2f8	0.9602504
60	0x3f84c5b0	1.037283
61	0x3f793d43	0.973591
62	0x3f7648ae	0.9620465
63	0x3f742003	0.95361346

attention_layernorms.1.bias f4 [64]
0	0xbcaab774	-0.02083943
1	0x3b017f75	0.0019759808
2	0x3c2f08da	0.010683263
3	0x3c50fc32	0.012755441
4	0x3c709f0f	0.01468636
5	0xbad6c7f8	-0.00163865
6	0xbd13535e	-0.035968177
7	0x3c3ee6ad	0.011651677
8	0xbc775e69	-0.015098193
9	0xbc828c44	-0.015936024
10	0xbccd3f0f	-0.025054483
11	0xbc79b504	-0.015240911
12	0xbbe5c973	-0.00701254
13	0xbc330229	-0.010925808
14	0xbc2ace97	-0.010425231
15	0x3c1e341a	0.009655977
16	0x3cc314f7	0.023813708
17	0x3c8f3149	0.017479556
18	0x3bb023d7	0.005375366
19	0x3b9192ec	0.0044425633
20	0xbcb24a5a	-0.02176397
21	0x3ccad54f	0.024759917
22	0x3c4d51b1	0.012531684
23	0x3b5726e5	0.003282958
24	0xbd017f2a	-0.031615414
25	0x3c4018c7	0.011724657
26	0x3cadbdfa	0.021208752
27	0xbbff9873	-0.007800156
28	0xbbe3b1b4	-0.006948674
29	0x3c7c6b24	0.015406404
30	0x3d1eee28	0.038801342
31	0xbcac2e9b	-0.021018317
32	0x3c583487	0.013196117
33	0x3c805227	0.015664173
34	0x3bffc5e5	0.0078055733
35	0x3cbd31df	0.02309507
36	0xbcd9a287	-0.026566757
37	0x3ca0783c	0.019588582
38	0xbbe7c20f	-0.007072694
39	0xbb338ac8	-0.0027395952
40	0x3bbfd57b	0.0058543063
41	0xbce02f0c	-0.027366184
42	0xbd2bcdf5	-0.041944463
43	0x3c6ecd4e	0.014575316
44	0xbc02302a	-0.0079460535
45	0x3ccf4c55	0.025304953
46	0x3b24ee4e	0.0025166455
47	0x3a161eba	0.00057266245
48	0xbc38c479	-0.0112773115
49	0xbc957b0b	-0.018247148
50	0xbb762e11	-0.0037564079
51	0x39fccf6f	0.00048219736
52	0x3c380cc9	0.011233517
53	0xbc865a71	-0.016400548
54	0x3aa3624b	0.0012465207
55	0xbbd017a2	-0.0063504735
56	0xbc8cfb60	-0.017209709
57	0x3c01f091	0.007930891
58	0x3c33f8cf	0.010984614
59	0x3cfc0fc1	0.03076923
60	0xbc00d3c0	-0.007862985
61	0x3c8f9f80	0.01753211
62	0x3c649972	0.0139526
63	0x39c079ee	0.00036711938

attention_layers.0.in_proj_weight f4 [192, 64]
0	0xbe15758a	-0.14595619
1	0xbde4312c	-0.11142191
2	0x3c92a20a	0.017899532
3	0x3b4ee164	0.0031567449
4	0x3cb33f64	0.021880813
5	0xbd1b2de9	-0.03788558
6	0x3d8a8369	0.06763346
7	0xbd978907	-0.07399183
8	0xbc487d66	-0.012236929
9	0xbe23ac82	-0.15983775
10	0x3d2ecf05	0.042677898
11	0xba80161a	-0.0009772212
12	0x3ddde4a6	0.10834627
13	0xbcea8588	-0.028628126
14	0xbc9c099a	-0.019047547
15	0xbdee2673	-0.11628427
16	0x3a8b6dea	0.0010637615
17	0xbd971805	-0.07377628
18	0xbe188a7c	-0.14896578
19	0x3e1d07df	0.15335034
20	0xbcbb6d5d	-0.022879297
21	0xbe00868b	-0.12551324
22	0xbcb2042e	-0.021730509
23	0xbdbbfafb	-0.0917873
24	0x3e0e37dc	0.13888496
25	0xbe030d6b	-0.12798087
26	0x3c235061	0.009967894
27	0xbd57acca	-0.05265502
28	0x3df0ca5f	0.11757349
29	0xbc95b866	-0.018276405
30	0xbb8f3c31	-0.004371189
31	0x3d9ed656	0.07755725
32	0x3e0c3a90	0.13694215
33	0x3d658bd9	0.056041572
34	0xbc997e4d	-0.018736983
35	0xbb6ba52d	-0.0035956607
36	0x3d3542e1	0.044253234
37	0xbdadd577	-0.08487981
38	0x3e86df52	0.26342255
39	0x3d602e65	0.054731745
40	0x3db352eb	0.0875605
41	0x3d5f4e22	0.054517873
42	0x3da8c0c5	0.08239893
43	0x3cd93b44	0.026517518
44	0xbdf221a1	-0.118228205
45	0x3d03413a	0.032044627
46	0x3d45b35e	0.04826676
47	0xbdb01ecf	-0.08599626
48	0xbda9160a	-0.08256157
49	0xbdef6989	-0.11690051
50	0x3e125fd1	0.14294364
51	0x3d911439	0.07083935
52	0x3cf45954	0.029827751
53	0xbb4735b6	-0.0030397004
54	0x3e64f9ae	0.2236087
55	0x3d905975	0.070483126
56	0xbcf2b32a	-0.029626448
57	0xbd3db06b	-0.046310823
58	0xbddb81b7	-0.107181005
59	0x3e185e4a	0.14879718
60	0x3d933e80	0.07189655
61	0x3e5356e4	0.20638615
62	0x3e2c93bc	0.16853231
63	0xbd2917f3	-0.041282605
64	0xbc2a0592	-0.010377305
65	0x3d37ebe3	0.044902693
66	0xbc08a84e	-0.008340908
67	0xbe02ec31	-0.12785412
68	0x3d5f4d74	0.054517224
69	0x3ddf4513	0.10901847
70	0x3cbecb60	0.023290336
71	0x3bc5bc26	0.006034392
72	0xbe2581f6	-0.16162857
73	0x3dcdd36c	0.10050091
74	0x3d1f8167	0.038941767
75	0xbdb0c8f7	-0.08632081
76	0x3dac3d08	0.08410078
77	0x3e1ee8b3	0.15518455
78	0x3b29ea3e	0.0025926973
79	0x3e6936b5	0.22774775
80	0x3d10acab	0.03532092
81	0xbd7716da	-0.060324527
82	0x3de8af63	0.11361577
83	0x3da04a0d	0.07826624
84	0xbc3548d1	-0.011064724
85	0xbd2631f1	-0.04057497
86	0xbe3d8f31	-0.18511654
87	0x3df78fcf	0.12087976
88	0xbbe13a35	-0.006873394
89	0xbcd8c611	-0.026461633
90	0x3dadb9b5	0.084826864
91	0xbe125937	-0.14291845
92	0x3d50ac6c	0.050945684
93	0x3e1bddb9	0.15221299
94	0x3d8d6087	0.06903177
95	0xbdd61a46	-0.1045423
96	0x3eb56631	0.35429528
97	0xbdbb7c0e	-0.09154521
98	0x3d784c55	0.06061967
99	0xbce4580e	-0.027874019
100	0xbd1bd45b	-0.038044315
101	0xbd9dccf5	-0.07705108
102	0x3c2a2c06	0.010386473
103	0xbc31417a	-0.0108188335
104	0xbbc483d1	-0.005997159
105	0x3e298e41	0.16558172
106	0xbd414e77	-0.04719397
107	0xbd5127c1	-0.051063303
108	0xbe00e409	-0.12586989
109	0x3dfb9825	0.12284879
110	0x3d6d3a4c	0.057916924
111	0x3d4e8558	0.050420135
112	0x3ce1e5ab	0.027575335
113	0xbd0ec844	-0.034858957
114	0xbdcbf06b	-0.099579655
115	0xbe396fa2	-0.18108991
116	0xbe29dcff	-0.1658821
117	0x3d6caad8	0.057780117
118	0xbc7905b9	-0.015199118
119	0xbe0e61be	-0.13904473
120	0x3d36dcf8	0.044644326
121	0x3e469504	0.19392782
122	0xbc19dbfb	-0.009390826
123	0x3db2a9b4	0.087237746
124	0xbd973a5d	-0.07384179
125	0x3de5ff4e	0.11230336
126	0x3ce5d5ad	0.02805599
127	0x3cb88a17	0.022526784
128	0xbdbd17bc	-0.092330426
129	0xbc390ccd	-0.011294556
130	0xbcc09a97	-0.023511214
131	0x3cbc6c16	0.023000758
132	0x3dad453a	0.084604695
133	0x3d510950	0.05103427
134	0xbdcc51d0	-0.09976542
135	0x3d68a700	0.05679989
136	0xbe1ba473	-0.15199451
137	0xbd58fc18	-0.05297479
138	0x3d47a7d1	0.048744027
139	0x3c479f9c	0.01218405
140	0xbe36bbcb	-0.17845075
141	0xbe5aaa2e	-0.21353981
142	0xbde73d11	-0.11290944
143	0x3d4aa709	0.049475703
144	0xbc2667f8	-0.010156624
145	0x3d04fef6	0.032469712
146	0xbe2e91d0	-0.1704781
147	0xbd99c131	-0.075075515
148	0x3dbd49f7	0.09242623
149	0x3cb1737d	0.021661514
150	0xbe48b1fb	-0.19599144
151	0xbe032962	-0.12808755
152	0x3b0b8882	0.0021291082
153	0x3caaef3f	0.020866035
154	0xbd346ad7	-0.044047203
155	0xbc3a6187	-0.011375791
156	0xbd179adc	-0.03701292
157	0x3d1220b2	0.035675712
158	0xbbff252b	-0.007786413
159	0x3d0e851a	0.034794904
160	0xbe0de99f	-0.1385865
161	0xbc8db20f	-0.017296819
162	0x3d94e3c7	0.072700076
163	0x3d95085c	0.07276985
164	0xbba49f47	-0.00502387
165	0xbd761f6b	-0.060088556
166	0xbd821307	-0.063512854
167	0xbe1c45b7	-0.15260969
168	0x3cb398c5	0.021923432
169	0xbd5fe198	-0.054658502
170	0x3d867b44	0.0656648
171	0xbdf162f4	-0.11786452
172	0xbb2cbe89	-0.0026358685
173	0xbd6e9012	-0.058242865
174	0x3d9adeb1	0.07562006
175	0xbd514779	-0.051093552
176	0x3ca694f0	0.02033469
177	0xbcbf9cd2	-0.023390207
178	0xbd92234e	-0.0713564
179	0x3bcbd171	0.0062200357
180	0xbe064024	-0.13110405
181	0x3d8859a3	0.06657722
182	0xbd4de14b	-0.050263684
183	0xbe22342c	-0.15840214
184	0x3d087748	0.03331688
185	0x3cde312c	0.027123056
186	0x3d45c2de	0.048281543
187	0xbdc77517	-0.0973913
188	0xbda3df86	-0.08001618
189	0xbd91c2be	-0.07117222
190	0xbe1e02b8	-0.15430725
191	0x3cdcd569	0.02695723
192	0xbdb67538	-0.089090765
193	0x3d6c6282	0.057711132
194	0x3cb57cca	0.02215423
195	0xbd3cc67d	-0.04608773
196	0x3e36e171	0.17859437
197	0xbc840a41	-0.01611817
198	0xbdc9cb9e	-0.0985329
199	0xbd6eceec	-0.058302805
200	0x3e3aefe8	0.1825558
201	0xbe1a9c26	-0.15098628
202	0xbc06cadd	-0.008227077
203	0x3dd954b5	0.1061186
204	0x3c44da8f	0.012014999
205	0x3d9c7247	0.07638984
206	0xbdb20662	-0.08692624
207	0x3c8ec43a	0.017427552
208	0xbd563003	-0.05229188
209	0x3df07ccf	0.11742555
210	0xbe1b4f06	-0.15166864
211	0x3dbb5ab0	0.09148157
212	0xbdf3023a	-0.11865659
213	0x3d7e984f	0.06215697
214	0x3e3188e7	0.1733738
215	0xbe001110	-0.12506509
216	0xbddd0d97	-0.10793608
217	0xbdb843b7	-0.089972906
218	0xbd0ab14f	-0.0338605
219	0x3d8a83f0	0.06763446
220	0x3d08057f	0.033208366
221	0x3d747447	0.059681203
222	0x3e1564cf	0.14589237
223	0x3cb04725	0.0215183
224	0xbc322394	-0.01087274
225	0xbe041b93	-0.12901144
226	0xbdd7339c	-0.105078906
227	0x3d3cbac7	0.046076562
228	0x3e3dcaf1	0.18534447
229	0xbc7b3d68	-0.015334465
230	0x3dbd8bf8	0.092552125
231	0x3de9f86a	0.11424334
232	0x3d8baf28	0.06820518
233	0x3c1d9f56	0.009620508
234	0x3dc4660d	0.09589777
235	0x3d6f024d	0.058351804
236	0x3d25106d	0.040298868
237	0xbca6d15d	-0.020363504
238	0xbdc85a08	-0.09782797
239	0xbde59a56	-0.11211078
240	0x3ddcc57b	0.10779854
241	0xbd9a7226	-0.07541303
242	0xbc84f894	-0.016231813
243	0xbe617e45	-0.22020824
244	0x3da47c3e	0.0803151
245	0x3db36e13	0.08761229
246	0x3d5e6d8a	0.054303683
247	0xbceccf73	-0.028907513
248	0xbd055ad2	-0.032557316
249	0xbd727b92	-0.059199877
250	0xbdc54b53	-0.096335076
251	0x3cda7175	0.026665429
252	0x3de51fa9	0.11187679
253	0xbb922228	-0.004459638
254	0xbe13f01e	-0.14447066
255	0xbb67e102	-0.0035381918

attention_layers.0.in_proj_bias f4 [192]
0	0x3cc87aa3	0.02447254
1	0x3cb07439	0.021539794
2	0xbd7775c3	-0.06041504
3	0x3cc4578e	0.02396753
4	0xbcb38583	-0.02191425
5	0xbcd03edd	-0.0254206
6	0x3c9a2099	0.018814372
7	0x3d948443	0.072517894
8	0x3cd3b759	0.025844263
9	0x3ce7315a	0.028221775
10	0xbd01a350	-0.031649888
11	0xbd15a9cb	-0.03653888
12	0x3cd6c8b8	0.026218757
13	0x3ccf3d2c	0.025297724
14	0xbc0da94e	-0.008646322
15	0xb90d0dec	-0.00013451994
16	0x3ce9fd22	0.028563086
17	0xbd328c19	-0.04359064
18	0x3d5ab002	0.05339051
19	0xbc424fa0	-0.011859804
20	0x3d32785a	0.043571807
21	0x3d60ecb4	0.054913238
22	0xbc9debd1	-0.019277485
23	0x3cfb1e88	0.030654207
24	0xbd95897d	-0.073016144
25	0xbd62d817	-0.05538186
26	0x3d5c55e2	0.05379284
27	0xbd7b2b32	-0.06132049
28	0xbc30c37a	-0.010788793
29	0xbcaf1bc7	-0.02137555
30	0xbc7da12b	-0.01548032
31	0x3d3aa8a1	0.045570973
32	0x3cd49f7b	0.025954952
33	0x3cde6a48	0.027150288
34	0xbd30909f	-0.04310667
35	0xbcacc1dc	-0.021088533
36	0xbd629e2f	-0.055326637
37	0xbdcaf855	-0.09910647
38	0xbc827b0d	-0.015927816
39	0xbd41adbc	-0.047284827
40	0x3c8cad2d	0.01717242
41	0x3d136cb4	0.03599234
42	0xbcd45ea2	-0.02592403
43	0x3d727abd	0.059199084
44	0xbd6d67dd	-0.05796038
45	0xbccfcb8f	-0.025365619
46	0x3d3bbf84	0.04583694
47	0xbd396820	-0.045265317
48	0xbddbdfc4	-0.10736039
49	0x3d922cce	0.07137452
50	0xbdddae0f	-0.10824215
51	0x3df395ca	0.11893804
52	0x3c6717d6	0.014104804
53	0x3c6015d6	0.013677081
54	0xbd3ff9d0	-0.0468691
55	0xbd088196	-0.033326708
56	0x3de5fe52	0.112301484
57	0xbcc89c67	-0.024488641
58	0x3c1f335e	0.009716837
59	0x3db31fde	0.087463126
60	0xbd3daebd	-0.04630922
61	0xbd8afcfe	-0.06786536
62	0x3d3ce0bb	0.046112757
63	0x3dd8516d	0.10562406
64	0x38482b29	4.7723912e-05
65	0x38a5101a	7.870812e-05
66	0x3891ee49	6.958523e-05
67	0xb819d84d	-3.667949e-05
68	0xb87fc01f	-6.0975664e-05
69	0x384348c1	4.655938e-05
70	0x3845ea88	4.7186884e-05
71	0x3799529c	1.827749e-05
72	0xb84cf00e	-4.886096e-05
73	0x36380ac6	2.7424408e-06
74	0xb64f53a9	-3.08941e-06
75	0xb72d2607	-1.03204575e-05
76	0xb8b2bec6	-8.523236e-05
77	0x38a98976	8.084152e-05
78	0xb85f3881	-5.3219967e-05
79	0x37022b45	7.758678e-06
80	0x37b4c7bb	2.1550679e-05
81	0x382c52bc	4.1085048e-05
82	0xb6973ac0	-4.50699e-06
83	0xb9005c37	-0.00012241384
84	0x38853b47	6.3529755e-05
85	0x38cf65d4	9.889496e-05
86	0xb5f51db8	-1.8262572e-06
87	0x3709840a	8.196579e-06
88	0xb8450c42	-4.6979876e-05
89	0xb74f1d6e	-1.2345014e-05
90	0xb80e60cd	-3.394559e-05
91	0xb8de1af5	-0.00010590806
92	0x3802b31b	3.116122e-05
93	0xb7a6b891	-1.9874687e-05
94	0x390bcdf0	0.0001333279
95	0x3879e0dc	5.9575643e-05
96	0x38a7fd53	8.010366e-05
97	0x380d5f76	3.3705925e-05
98	0xb816d720	-3.5963138e-05
99	0x381ce8e2	3.7410187e-05
100	0x38823869	6.20939e-05
101	0xb7f9b22d	-2.9766083e-05
102	0xb68b7c84	-4.1570183e-06
103	0x37f309ac	2.8972361e-05
104	0xb80b7f11	-3.3258522e-05
105	0x372b2edd	1.02033055e-05
106	0xb7956a81	-1.7811779e-05
107	0x388d0f5d	6.7262656e-05
108	0xb6805b75	-3.8253443e-06
109	0x371d70b5	9.384171e-06
110	0x38558682	5.0908428e-05
111	0xb4a561a7	-3.0804696e-07
112	0x37bd1037	2.2538106e-05
113	0xb86103f9	-5.364788e-05
114	0x38a426ec	7.827379e-05
115	0xb69d1056	-4.6808664e-06
116	0xb8bd26e6	-9.019468e-05
117	0xb8a69cbb	-7.94469e-05
118	0x38246ade	3.9200175e-05
119	0xb8753c71	-5.8468842e-05
120	0xb8b75d19	-8.743461e-05
121	0x38821004	6.201866e-05
122	0xb90cee40	-0.00013440195
123	0xb911c1cf	-0.00013900477
124	0x38e3ee4a	0.00010868588
125	0x38266144	3.966807e-05
126	0xb93f4de8	-0.00018244202
127	0xb8eaed99	-0.000112022455
128	0x3c93e70e	0.018054511
129	0xbb09a64a	-0.0021003657
130	0xbc54212c	-0.012947362
131	0x3cfaf137	0.030632598
132	0xbc2e9eef	-0.01065801
133	0xbc6a6609	-0.014306554
134	0xbcb1f567	-0.021723462
135	0xbc566a21	-0.013086827
136	0xbc1c0488	-0.009522565
137	0x3bd3523a	0.006449011
138	0xbb6eb8f5	-0.003642616
139	0xbc88317f	-0.016625164
140	0xbcf2c503	-0.029634958
141	0x3c56b653	0.013104993
142	0x3c3a9e34	0.011390258
143	0xbc5046cd	-0.012712193
144	0x3c140ab6	0.009035757
145	0xbceac477	-0.028658135
146	0xbc18a432	-0.009316491
147	0x3c6ec3b0	0.014573023
148	0xbc2f1516	-0.01068618
149	0x3ce0e475	0.027452687
150	0x3bb6010b	0.0055543236
151	0xbc786730	-0.015161321
152	0x3b531d39	0.0032213463
153	0xbb7fc361	-0.0039026367
154	0x3bf20a1b	0.0073864586
155	0x3c08c192	0.008346932
156	0xbc5c6657	-0.013452134
157	0xbc62d7f7	-0.013845435
158	0xbcff1ddf	-0.031142173
159	0xbbfd4a92	-0.0077298367
160	0xbac97a74	-0.0015371577
161	0x3c754922	0.0149710495
162	0x3ba2b464	0.004965352
163	0x3c88aaef	0.01668307
164	0xbadb7ca0	-0.0016745515
165	0xba181a0c	-0.0005802221
166	0xbc3fd319	-0.011708044
167	0xbc8e3fe8	-0.017364457
168	0xbc503f44	-0.012710396
169	0xbc6ded64	-0.01452193
170	0xbbc0e073	-0.0058861314
171	0xbc8f8630	-0.01752004
172	0xbb4c3ec9	-0.0031165353
173	0xbba4b000	-0.0050258636
174	0xbca455e9	-0.020060496
175	0xbc0f7344	-0.008755509
176	0xbbfaacf1	-0.0076500108
177	0xbca06000	-0.019577026
178	0xbc2486ed	-0.010041934
179	0xbcc9143c	-0.024545781
180	0xbb8c51e5	-0.0042822235
181	0xbb94f3de	-0.004545673
182	0x3c471648	0.012151308
183	0xbcd632ab	-0.026147207
184	0xbcce98ab	-0.025219282
185	0xbbbd1aa3	-0.0057709976
186	0x3bf851f8	0.007578131
187	0xbc544a6a	-0.012957195
188	0xbba2075f	-0.0049447264
189	0x3c01712d	0.007900518
190	0x3c28eeac	0.01031081
191	0xbbab4b78	-0.0052275024

attention_layers.0.out_proj.weight f4 [64, 64]
0	0x3d31721b	0.04332171
1	0xbde3959e	-0.111125216
2	0x3c8f4b9a	0.017492104
3	0xbcf1aa88	-0.029500261
4	0x3e0f27f7	0.13980089
5	0x3c863ebe	0.01638734
6	0x3cd3d01a	0.025856066
7	0xbd9af4ed	-0.07566247
8	0xbebeab1b	-0.37239918
9	0x3e207b41	0.15672018
10	0xbe082069	-0.13293613
11	0xbd44542a	-0.047931828
12	0xbd159814	-0.036521986
13	0x3db7e630	0.08979452
14	0xbd725538	-0.059163302
15	0x3b8f827d	0.004379569
16	0x3cd867f3	0.026416754
17	0xbd7abad5	-0.061213333
18	0xbdcebcca	-0.100946024
19	0x3e79e984	0.24405485
20	0x3d931284	0.07181266
21	0x3d80316a	0.06259425
22	0xbc337274	-0.010952581
23	0xbd301ab8	-0.04299423
24	0xbd5040c9	-0.050843034
25	0x3cbba61a	0.022906352
26	0xbd375a12	-0.044763632
27	0x3d89f328	0.067358315
28	0xbb84a002	-0.0040473947
29	0xbdfabc68	-0.12242967
30	0x3d61ea84	0.055155292
31	0xbe886df1	-0.2664638
32	0xbddfd112	-0.10928549
33	0x3d60290a	0.054726638
34	0x3d474c24	0.048656598
35	0xbd535f44	-0.051604524
36	0xbddd3d44	-0.10802701
37	0x3de44fae	0.1114801
38	0xbe90c5a3	-0.28275785
39	0xbdba2307	-0.09088712
40	0x3da49b83	0.08037474
41	0xbd51f903	-0.051262867
42	0xbd9369ac	-0.0719789
43	0xbba05ad1	-0.0048936387
44	0xbca0b4fa	-0.019617546
45	0xbe21cf52	-0.15801743
46	0x3ce5d077	0.028053505
47	0x3c27d16c	0.010242801
48	0xbe23c45f	-0.15992878
49	0xbdd1349a	-0.10215111
50	0xbd803f91	-0.06262124
51	0xbe5e5413	-0.2171176
52	0x3e08475d	0.13308473
53	0xbdbbd452	-0.09171356
54	0x3e06bd6c	0.13158196
55	0xbda74a8f	-0.08168518
56	0x3d4a2659	0.049352977
57	0xbc0c1b2f	-0.008551403
58	0x3e8b45ae	0.272016
59	0xbe4a072b	-0.19729297
60	0x3cc69e99	0.024245547
61	0xbd59d1f5	-0.053178746
62	0x3e5d1cab	0.21592967
63	0xbeaed371	-0.34145692
64	0x3e109d3b	0.14122479
65	0xbd8b844f	-0.06812345
66	0x3df98ba6	0.12184839
67	0xbeaab3c4	-0.33340275
68	0x3e220527	0.15822278
69	0x3d8064a7	0.06269198
70	0x3e74a4eb	0.23891036
71	0x3d81471c	0.06312391
72	0xbda9b3f6	-0.08286278
73	0xbe87fa48	-0.26558137
74	0xbe12879c	-0.14309543
75	0xbdd430d9	-0.103608795
76	0x3e3e81c5	0.1860419
77	0xbde63588	-0.11240679
78	0xbe908654	-0.28227484
79	0x3d5b2c73	0.053509187
80	0x3de24d5f	0.110499136
81	0xbc66e909	-0.014093646
82	0x3d242ba8	0.040080696
83	0x3de55df3	0.1119956
84	0x3e5115cd	0.20418473
85	0xbe8b91d2	-0.2725969
86	0x3e55ae2a	0.2086722
87	0x3cc67edc	0.024230413
88	0x3da39a15	0.07988373
89	0xbdfe49ed	-0.12416444
90	0x3c42a68d	0.011880529
91	0xbe1760cb	-0.14783017
92	0xbdcae515	-0.09906975
93	0x3e4dba44	0.20090586
94	0x3e509010	0.20367455
95	0x3d461f32	0.048369594
96	0x3dcd658e	0.10029136
97	0xbe1cf041	-0.15326025
98	0x3e7f66df	0.24941586
99	0xbcb0c479	-0.02157806
100	0x3dc0bfee	0.09411608
101	0x3e1974c4	0.14985949
102	0xbda9340c	-0.0826188
103	0xbcfc95d1	-0.030833157
104	0x3c9e853f	0.019350646
105	0x3d001410	0.031269133
106	0x3e8e76cd	0.27825013
107	0x3e42144e	0.18953058
108	0xbd916aea	-0.0710047
109	0xbe58c2f9	-0.21168126
110	0xbc8bd4fe	-0.017069336
111	0xbd8c0675	-0.06837169
112	0x3ca6d3e4	0.02036471
113	0x3e325d1b	0.1741833
114	0xbe1f7645	-0.1557246
115	0x3e96c026	0.29443473
116	0xbe86d52c	-0.26334512
117	0x3b64b350	0.0034896918
118	0x3e128ab8	0.1431073
119	0x3d2984d9	0.04138646
120	0x3d38964e	0.045065217
121	0x3d6d4c78	0.057934254
122	0xbba60755	-0.005066792
123	0x3d86c0af	0.0657972
124	0xbe1f454c	-0.15553778
125	0x3cdcb163	0.026940053
126	0x3e00728a	0.12543693
127	0x3c1ffd9b	0.009765054
128	0xbd42e273	-0.04757924
129	0x3dd79aa9	0.10527546
130	0x3c6fe52d	0.014642042
131	0xbe52afe8	-0.20574915
132	0xbd414165	-0.047181506
133	0xbe4e35aa	-0.20137659
134	0xbe13178f	-0.14364456
135	0xbe227a51	-0.15866973
136	0xbdc9c14e	-0.09851323
137	0x3e5cebe1	0.21574356
138	0x3e74c8ba	0.23904696
139	0xbe6a53de	-0.22883555
140	0xbe53b742	-0.20675376
141	0x3dd38378	0.1032781
142	0x3ddceb3d	0.10787056
143	0xbd851c2f	-0.06499516
144	0xbce5f000	-0.028068542
145	0x3dba869a	0.091077045
146	0xbde8e4b7	-0.11371749
147	0xbe76e7a8	-0.24111807
148	0x3ccc86d8	0.024966642
149	0x3def6a9a	0.116902545
150	0x3d7dfc25	0.062008042
151	0xbc02f198	-0.007992171
152	0x3de79b62	0.11308934
153	0xbe040082	-0.12890819
154	0xbdbd4723	-0.09242084
155	0x3dcac17a	0.09900184
156	0x3d34eca6	0.044170998
157	0x3d4f719e	0.050645463
158	0x3e4d7463	0.2006393
159	0xbe32b9e2	-0.17453721
160	0x3d8d6515	0.069040455
161	0xbc80ef28	-0.015739039
162	0x3cdd0981	0.02698207
163	0x3bec1b0c	0.0072053727
164	0xbe929ebc	-0.2863673
165	0x3cfda615	0.030962983
166	0xbdae16f1	-0.085004695
167	0x3c8601e9	0.016358333
168	0x3de72e20	0.112880945
169	0xbd84a722	-0.064771906
170	0x3e854f9d	0.26037303
171	0xbe906efa	-0.28209668
172	0x3c7a21b4	0.0152668245
173	0xbd8e1b4b	-0.069387995
174	0xbe54e809	-0.2079164
175	0xbecfe4b6	-0.4060418
176	0x3d8c3154	0.06845346
177	0x3c9959e8	0.018719628
178	0xbe0c8043	-0.13720803
179	0xbdd1d6ef	-0.102460735
180	0xbe0d27f2	-0.13784769
181	0xbdd24469	-0.102669545
182	0x3ca511d9	0.020150112
183	0xbc907bb0	-0.017637104
184	0x3e14c29d	0.14527364
185	0xbd40d145	-0.047074575
186	0xbe4aed0b	-0.19816987
187	0x3c31a218	0.010841869
188	0xbe1ec45c	-0.15504593
189	0x3dba46fc	0.090955704
190	0x3d70e5e4	0.05881299
191	0xbeb33aa5	-0.3500568
192	0xbc01e35d	-0.007927743
193	0xbe8dbe9c	-0.27684486
194	0x3e06fa18	0.1318134
195	0x3d1d25bc	0.038366064
196	0x3cff2e34	0.031149961
197	0xbda24aca	-0.07924421
198	0xbe4bec61	-0.1991439
199	0xbe36bb51	-0.17844893
200	0xbe563422	-0.20918325
201	0x3d26e483	0.04074527
202	0x3db1830c	0.08667573
203	0x3c3b2822	0.011423143
204	0x3e38d98c	0.18051738
205	0x3e21a1b1	0.15784337
206	0x3b808c83	0.0039230003
207	0x3e25982c	0.1617133
208	0xbe495b32	-0.19663695
209	0xbd54a13e	-0.051911585
210	0x3b7cf24e	0.0038596573
211	0xbcd8776d	-0.026424134
212	0x3cd8ce5f	0.026465593
213	0x3e4a7e3b	0.19774716
214	0x3cbee6c8	0.023303404
215	0x3ccb9c23	0.024854725
216	0x3d8edcf3	0.069757365
217	0x3e77ed17	0.24211536
218	0xbe3d73f9	-0.18501271
219	0xbe391662	-0.18074945
220	0x3db97cd0	0.09057009
221	0xbbe0d072	-0.006860786
222	0xbdaec191	-0.085330136
223	0x3e3eee62	0.18645623
224	0x3da7c7f4	0.08192435
225	0xbcc459d7	-0.02396862
226	0xbda1e3da	-0.07904787
227	0x3e0dd928	0.1385237
228	0xbd9455dc	-0.07242939
229	0xbbf1af49	-0.007375632
230	0xbdbcecff	-0.09224891
231	0xbd131624	-0.035909787
232	0x3e8051ee	0.25062507
233	0x3e575725	0.21029337
234	0xbc84086e	-0.0161173
235	0xbe0949b7	-0.13407026
236	0xbd3acd59	-0.04560599
237	0x3e4b4432	0.19850233
238	0xbd833e4c	-0.064083666
239	0x3c81e68f	0.01585701
240	0xbe2283a1	-0.15870525
241	0xbde23108	-0.11044508
242	0xbc30b080	-0.010784268
243	0x3e24b32c	0.16083974
244	0xbe4d65db	-0.20058386
245	0xbd52c441	-0.051456694
246	0xbe0cb4ac	-0.13740796
247	0xbdf02e9b	-0.11727639
248	0xbe2ca6bb	-0.16860478
249	0xbd27b55e	-0.04094445
250	0x3c76be4d	0.01506002
251	0xbd3bc6ed	-0.045844007
252	0x3de4d144	0.11172727
253	0xbd161785	-0.036643524
254	0x3e02ec0a	0.12785354
255	0x3e555b48	0.20835602

attention_layers.0.out_proj.bias f4 [64]
0	0x3cb1baf6	0.021695595
1	0xbc8b2948	-0.016987458
2	0xbc0a1f3b	-0.0084302975
3	0xbb833c47	-0.0040049884
4	0x3cd2ae76	0.025717955
5	0x3c2b520b	0.010456572
6	0xbc0602a3	-0.00817934
7	0x3c9293d5	0.017892757
8	0x3c70f3d9	0.014706575
9	0xbc346d58	-0.011012398
10	0xbcda2dd5	-0.026633183
11	0x3cb6101d	0.02222448
12	0xbc69e82f	-0.014276548
13	0x3c724c82	0.014788749
14	0x3b8d93fd	0.00432062
15	0x3b066361	0.0020506012
16	0xbb2ede13	-0.002668266
17	0xbc13f159	-0.00902971
18	0x3bb3d7b7	0.0054883617
19	0xbc347ad8	-0.011015616
20	0xbc354424	-0.011063609
21	0xbcae9fd2	-0.021316443
22	0x3b7d3f6e	0.0038642543
23	0x3c155847	0.009115285
24	0xbc263779	-0.010145062
25	0xbc15fbbe	-0.009154258
26	0xbb522bcd	-0.0032069564
27	0x3c2a545e	0.010396091
28	0x3bad9083	0.005296768
29	0x3bd1fb66	0.006408143
30	0xbbd99c92	-0.006640979
31	0x3c3f4c23	0.011675867
32	0x3b3dbe94	0.0028952705
33	0xbc8b8a88	-0.01703383
34	0xbc8b1194	-0.016976155
35	0x3c19ade3	0.009379837
36	0xbbb323f6	-0.0054669334
37	0xbc1d5b67	-0.009604312
38	0x3beb0d94	0.0071732495
39	0x3bc9e21a	0.0061609866
40	0xbcb34b9d	-0.021886641
41	0x3c6f4579	0.014603966
42	0xbc4a0c68	-0.012332059
43	0xbbe0e1b0	-0.0068628415
44	0x3bdc12d6	0.0067161126
45	0x3cad31e1	0.021141948
46	0xbd44d679	-0.0480561
47	0xbbce6741	-0.00629893
48	0x3b19c221	0.0023461657
49	0xbba78973	-0.005112821
50	0x3c02ebbb	0.007990773
51	0xbb964442	-0.0045857737
52	0x3b8bf3f9	0.004271027
53	0x3d02e5af	0.031957325
54	0xbb1603f5	-0.0022890542
55	0xbb8955a8	-0.004191119
56	0xbb86c4ea	-0.0041128295
57	0x3c23f30a	0.0100066755
58	0xbc494f5b	-0.012286986
59	0xbbca9dba	-0.0061833533
60	0xbc4c667e	-0.012475608
61	0xbc91015e	-0.017700847
62	0x3b4cc704	0.0031246552
63	0xbc162a7e	-0.009165404

attention_layers.1.in_proj_weight f4 [192, 64]
0	0xbd44c156	-0.048035942
1	0xbc3d9117	-0.011570237
2	0xbdfe3545	-0.12412504
3	0xbca23d60	-0.019804657
4	0xbd9b5150	-0.075838685
5	0xbe28265a	-0.1642088
6	0x3da7cc49	0.08193261
7	0xbd822632	-0.063549414
8	0xbdeeda8d	-0.11662779
9	0xbd33a264	-0.04385604
10	0x3b4d9f1e	0.0031375359
11	0xbd5e2927	-0.054238465
12	0xbde8fa63	-0.113758825
13	0xbd9b403b	-0.0758061
14	0x3e0d0e3f	0.13774966
15	0x3d04fc4d	0.032467175
16	0xbd28a71e	-0.041175
17	0xbcb8a7f0	-0.022541016
18	0xbd3d869d	-0.046270955
19	0x3dcea7c6	0.10090594
20	0x3e365e17	0.1780933
21	0xbde28f68	-0.11062509
22	0xbb64d64a	-0.0034917765
23	0xbcbda9f8	-0.023152336
24	0x3c9b1601	0.01893139
25	0x3d9d44d1	0.07679141
26	0x3e0e9f3e	0.13927934
27	0xbd8fa9b6	-0.07014792
28	0xbd8976ca	-0.0671211
29	0x3e07d84c	0.13266104
30	0x3c9d00d1	0.019165428
31	0xbdcc28de	-0.09968732
32	0xbdad392d	-0.08458171
33	0xbc1e7ac8	-0.009672828
34	0x3cf33a56	0.029690903
35	0xbd3b002e	-0.04565447
36	0xbd9f2be1	-0.07772041
37	0x3db4a4b7	0.08820479
38	0x3c0a2a64	0.008432958
39	0x3dbadd38	0.091242254
40	0x3d38b38f	0.045093115
41	0xbd613cde	-0.054989688
42	0x3cdb3a70	0.026761264
43	0x3bf2f760	0.0074147433
44	0xbc2fa9b4	-0.010721613
45	0x3b9e21aa	0.0048257904
46	0x3daa7006	0.08322148
47	0x3db47dc9	0.08813054
48	0x3cd10821	0.025516571
49	0x3dddf08c	0.10836896
50	0xbc94177c	-0.018077604
51	0x3c962810	0.01832965
52	0xbda73176	-0.08163731
53	0x3e81a4cf	0.2532105
54	0xbce5754e	-0.028010037
55	0xbb77e92f	-0.0037828197
56	0x3d9a96e5	0.07548312
57	0xbda5ec7a	-0.08101745
58	0x3d01933c	0.031634554
59	0xbdca7ca6	-0.09887056
60	0x3d7ffdb2	0.062497802
61	0xbddb3445	-0.10703329
62	0xbd3f8528	-0.046757847
63	0xbdd301f9	-0.10303111
64	0x3b73595a	0.0037132115
65	0xbe2d4e09	-0.169243
66	0xbd2e4b02	-0.042552
67	0x3d5a400e	0.053283744
68	0xbb75b574	-0.0037492188
69	0xbe5a8d89	-0.21343054
70	0x3d4b13dc	0.049579486
71	0x3c74d63d	0.0149436565
72	0xbe42d154	-0.19025165
73	0x3df2467f	0.11829852
74	0xbd0dc290	-0.034609377
75	0x3d42cf57	0.047561016
76	0x3c2183e4	0.009858105
77	0x3e022ae4	0.12711674
78	0xbc9411ea	-0.018074948
79	0xbc1ad63c	-0.0094504915
80	0x3d75f10b	0.06004433
81	0xbdbd90bd	-0.09256122
82	0xbe3c8ec2	-0.18413833
83	0xbe1b0e56	-0.15142187
84	0x3d82c58c	0.06385335
85	0xbcfd33f9	-0.030908572
86	0x3dbe5c34	0.0929493
87	0x3eab5b8b	0.3346828
88	0xbd0a3473	-0.033741426
89	0x3d938f48	0.07205063
90	0xbe197895	-0.14987405
91	0x3d71fa12	0.059076376
92	0x3d4c47b6	0.049873076
93	0x3caa5d7a	0.020796526
94	0x3c18366d	0.00929032
95	0x3dde32e9	0.10849554
96	0xbe0af379	-0.1356944
97	0x3dd29a21	0.10283304
98	0xbe3e1c8a	-0.18565574
99	0x3c95e1c3	0.018296128
100	0x39c8e105	0.00038314625
101	0xba79b3bc	-0.00095253787
102	0x3b4743ec	0.0030405475
103	0x3e811909	0.25214413
104	0x3e0803ad	0.13282652
105	0xbd4ae36d	-0.049533296
106	0xbd83fcff	-0.064447396
107	0xbe5baa4e	-0.21451685
108	0xbcbed22e	-0.02329358
109	0x3d525e7b	0.051359635
110	0x3d840212	0.064457074
111	0xbdeaa11a	-0.11456509
112	0x3e0695a9	0.13143028
113	0xbe2edf98	-0.17077482
114	0x3c6ccbea	0.014452914
115	0xbb6a8aa1	-0.0035788196
116	0xbc961717	-0.018321557
117	0x3e0d0f10	0.13775277
118	0x3ddeb0f9	0.108735986
119	0xbccc42ef	-0.02493426
120	0xbdbdf657	-0.09275501
121	0x3d166fb4	0.036727622
122	0x3d36fc74	0.04467435
123	0xbe1aaa6c	-0.15104073
124	0xbd9af200	-0.07565689
125	0xbdc34035	-0.09533731
126	0x3da7e8c8	0.081986964
127	0x3cae2588	0.02125813
128	0xbe2fb5b1	-0.17159154
129	0xbdbb88b8	-0.091569364
130	0x3e252760	0.16128302
131	0x3d2c077a	0.041999318
132	0xbdb74b14	-0.08949867
133	0xbd50d2dc	-0.05098234
134	0x3d066dc7	0.032819536
135	0xbca1a44a	-0.01973166
136	0xbc500786	-0.012697106
137	0xbd9b65fe	-0.07587813
138	0x3cb6c341	0.022309901
139	0xbc0c470f	-0.008561864
140	0x3ddc54eb	0.10758384
141	0x3ce01dcb	0.027357956
142	0x3dcb0eb8	0.09914917
143	0x3d5c5d0d	0.053799678
144	0x3c8ddfd7	0.01731865
145	0x3d15e790	0.03659779
146	0xbdaaecb9	-0.083459325
147	0xbd0fadca	-0.035077848
148	0x3c6802b3	0.0141608
149	0x3e269382	0.16267207
150	0xbdbc99af	-0.09209
151	0xbdebad05	-0.1150761
152	0x3de837b3	0.11338749
153	0x3d124bdf	0.035716888
154	0x3d0453dd	0.03230654
155	0xbda87d9d	-0.08227084
156	0x3c881daf	0.016615717
157	0x3c58725e	0.013210861
158	0xbd2c2699	-0.042028997
159	0x3d9f8f27	0.07790976
160	0xbdb5de37	-0.08880275
161	0xbc8c5bfc	-0.017133705
162	0xbd5e17dd	-0.054221977
163	0x3d1201eb	0.03564636
164	0x3d9c463e	0.07630585
165	0x3dfbe231	0.12299002
166	0xbd8f6938	-0.07002491
167	0x3de7da3d	0.113209225
168	0xbd848490	-0.06470597
169	0x3d26df21	0.040740136
170	0x3da8fbe6	0.08251171
171	0xbd989c63	-0.074517034
172	0x3d68afa7	0.05680814
173	0xbd2c8637	-0.042120185
174	0x3d59d18d	0.05317836
175	0x3de860b4	0.1134657
176	0x3d49d2ba	0.04927323
177	0x3dbbd8a1	0.09172178
178	0x3ca0bb97	0.0196207
179	0x3d8789ac	0.06618056
180	0x3da7a53f	0.08185815
181	0x3e297563	0.16548686
182	0xbd814810	-0.06312573
183	0xbc81bc88	-0.015836969
184	0x3d9e7666	0.077374265
185	0x3d7918e2	0.060814746
186	0x3ce80ed8	0.02832739
187	0x3d9b837b	0.07593437
188	0x3db5b2d3	0.08871999
189	0x3de109e0	0.10988212
190	0xbe096668	-0.13417971
191	0x3936dde8	0.00017439539
192	0xbe46d38d	-0.19416638
193	0xbda77123	-0.08175876
194	0xbd408d7f	-0.04700994
195	0xbd7a8b6a	-0.06116811
196	0xbb2041b2	-0.002445322
197	0x3e07abb7	0.13249098
198	0x3dcba0a0	0.09942746
199	0xbc99153e	-0.018686887
200	0xbdea5317	-0.114416294
201	0xbcc95679	-0.024577366
202	0xbcda9879	-0.026684033
203	0xbd9467e6	-0.072463796
204	0xbd02ccb1	-0.03193349
205	0xbc90250a	-0.017595787
206	0xbdb4d30a	-0.08829315
207	0xbe66bad0	-0.22532201
208	0x3ced77ae	0.028987732
209	0x3d242cb8	0.04008171
210	0xbb452a89	-0.0030085167
211	0x3c40e515	0.011773367
212	0x3d969ce4	0.07354143
213	0xbd229b85	-0.039699096
214	0x3bd0c751	0.0063714166
215	0xbb9cebca	-0.0047888504
216	0xbc824d16	-0.015905898
217	0x3d363067	0.044479754
218	0x3c732223	0.014839682
219	0x3e16a7c4	0.14712435
220	0xbbe25977	-0.0069076377
221	0xbd0f7461	-0.035023097
222	0xbe1fa475	-0.15590079
223	0xbcce2ee0	-0.025168836
224	0x3c350b8b	0.011050115
225	0xbda71deb	-0.08160003
226	0x3b888942	0.004166753
227	0x3d64deb0	0.055876434
228	0x3d87dc89	0.066338606
229	0x3bff387a	0.007788715
230	0x3db16d25	0.08663396
231	0x3db91b61	0.09038425
232	0xbdc29e6a	-0.09502871
233	0xbd5dc95b	-0.054147106
234	0xbda7d362	-0.08194615
235	0xbd9dc7fe	-0.07704161
236	0x3e6ca51b	0.23109858
237	0x3c435fbf	0.011924683
238	0x3c0f87fb	0.008760448
239	0xbdcefaed	-0.10106454
240	0xbcef63a1	-0.029222311
241	0x3e0f7eb3	0.14013176
242	0xbd21ef54	-0.03953488
243	0x3dbb8ccc	0.09157714
244	0x3e1172b1	0.14203908
245	0x3d7685cc	0.060186192
246	0xbdc3abd4	-0.09554258
247	0xbdf59658	-0.119915664
248	0x3dca4464	0.09876326
249	0xbdaa769e	-0.08323406
250	0x3ccd8c9e	0.025091466
251	0xbdd6e53a	-0.1049294
252	0x3d26f293	0.04075868
253	0x3d4ba30f	0.04971605
254	0x3dbcadcf	0.09212839
255	0xbc816103	-0.01579333
